#Intel® Core™ i3 CPU M 380 @ 2.53GHz × 4

abdu@abdu307:~/caffe$ sudo build/tools/caffe time --model=models/bvlc_alexnet/deploy.prototxt
I0115 20:44:43.120167 27124 caffe.cpp:347] Use CPU.
I0115 20:44:43.122743 27124 net.cpp:58] Initializing net from parameters: 
name: "AlexNet"
state {
  phase: TRAIN
  level: 0
  stage: ""
}
layer {
  name: "data"
  type: "Input"
  top: "data"
  input_param {
    shape {
      dim: 10
      dim: 3
      dim: 227
      dim: 227
    }
  }
}
layer {
  name: "conv1"
  type: "Convolution"
  bottom: "data"
  top: "conv1"
  param {
    lr_mult: 1
    decay_mult: 1
  }
  param {
    lr_mult: 2
    decay_mult: 0
  }
  convolution_param {
    num_output: 96
    kernel_size: 11
    stride: 4
  }
}
layer {
  name: "relu1"
  type: "ReLU"
  bottom: "conv1"
  top: "conv1"
}
layer {
  name: "norm1"
  type: "LRN"
  bottom: "conv1"
  top: "norm1"
  lrn_param {
    local_size: 5
    alpha: 0.0001
    beta: 0.75
  }
}
layer {
  name: "pool1"
  type: "Pooling"
  bottom: "norm1"
  top: "pool1"
  pooling_param {
    pool: MAX
    kernel_size: 3
    stride: 2
  }
}
layer {
  name: "conv2"
  type: "Convolution"
  bottom: "pool1"
  top: "conv2"
  param {
    lr_mult: 1
    decay_mult: 1
  }
  param {
    lr_mult: 2
    decay_mult: 0
  }
  convolution_param {
    num_output: 256
    pad: 2
    kernel_size: 5
    group: 2
  }
}
layer {
  name: "relu2"
  type: "ReLU"
  bottom: "conv2"
  top: "conv2"
}
layer {
  name: "norm2"
  type: "LRN"
  bottom: "conv2"
  top: "norm2"
  lrn_param {
    local_size: 5
    alpha: 0.0001
    beta: 0.75
  }
}
layer {
  name: "pool2"
  type: "Pooling"
  bottom: "norm2"
  top: "pool2"
  pooling_param {
    pool: MAX
    kernel_size: 3
    stride: 2
  }
}
layer {
  name: "conv3"
  type: "Convolution"
  bottom: "pool2"
  top: "conv3"
  param {
    lr_mult: 1
    decay_mult: 1
  }
  param {
    lr_mult: 2
    decay_mult: 0
  }
  convolution_param {
    num_output: 384
    pad: 1
    kernel_size: 3
  }
}
layer {
  name: "relu3"
  type: "ReLU"
  bottom: "conv3"
  top: "conv3"
}
layer {
  name: "conv4"
  type: "Convolution"
  bottom: "conv3"
  top: "conv4"
  param {
    lr_mult: 1
    decay_mult: 1
  }
  param {
    lr_mult: 2
    decay_mult: 0
  }
  convolution_param {
    num_output: 384
    pad: 1
    kernel_size: 3
    group: 2
  }
}
layer {
  name: "relu4"
  type: "ReLU"
  bottom: "conv4"
  top: "conv4"
}
layer {
  name: "conv5"
  type: "Convolution"
  bottom: "conv4"
  top: "conv5"
  param {
    lr_mult: 1
    decay_mult: 1
  }
  param {
    lr_mult: 2
    decay_mult: 0
  }
  convolution_param {
    num_output: 256
    pad: 1
    kernel_size: 3
    group: 2
  }
}
layer {
  name: "relu5"
  type: "ReLU"
  bottom: "conv5"
  top: "conv5"
}
layer {
  name: "pool5"
  type: "Pooling"
  bottom: "conv5"
  top: "pool5"
  pooling_param {
    pool: MAX
    kernel_size: 3
    stride: 2
  }
}
layer {
  name: "fc6"
  type: "InnerProduct"
  bottom: "pool5"
  top: "fc6"
  param {
    lr_mult: 1
    decay_mult: 1
  }
  param {
    lr_mult: 2
    decay_mult: 0
  }
  inner_product_param {
    num_output: 4096
  }
}
layer {
  name: "relu6"
  type: "ReLU"
  bottom: "fc6"
  top: "fc6"
}
layer {
  name: "drop6"
  type: "Dropout"
  bottom: "fc6"
  top: "fc6"
  dropout_param {
    dropout_ratio: 0.5
  }
}
layer {
  name: "fc7"
  type: "InnerProduct"
  bottom: "fc6"
  top: "fc7"
  param {
    lr_mult: 1
    decay_mult: 1
  }
  param {
    lr_mult: 2
    decay_mult: 0
  }
  inner_product_param {
    num_output: 4096
  }
}
layer {
  name: "relu7"
  type: "ReLU"
  bottom: "fc7"
  top: "fc7"
}
layer {
  name: "drop7"
  type: "Dropout"
  bottom: "fc7"
  top: "fc7"
  dropout_param {
    dropout_ratio: 0.5
  }
}
layer {
  name: "fc8"
  type: "InnerProduct"
  bottom: "fc7"
  top: "fc8"
  param {
    lr_mult: 1
    decay_mult: 1
  }
  param {
    lr_mult: 2
    decay_mult: 0
  }
  inner_product_param {
    num_output: 1000
  }
}
layer {
  name: "prob"
  type: "Softmax"
  bottom: "fc8"
  top: "prob"
}
I0115 20:44:43.122984 27124 layer_factory.hpp:77] Creating layer data
I0115 20:44:43.123024 27124 net.cpp:100] Creating Layer data
I0115 20:44:43.123042 27124 net.cpp:408] data -> data
I0115 20:44:43.123100 27124 net.cpp:150] Setting up data
I0115 20:44:43.123129 27124 net.cpp:157] Top shape: 10 3 227 227 (1545870)
I0115 20:44:43.123157 27124 net.cpp:165] Memory required for data: 6183480
I0115 20:44:43.123175 27124 layer_factory.hpp:77] Creating layer conv1
I0115 20:44:43.123198 27124 net.cpp:100] Creating Layer conv1
I0115 20:44:43.123210 27124 net.cpp:434] conv1 <- data
I0115 20:44:43.123226 27124 net.cpp:408] conv1 -> conv1
I0115 20:44:43.123360 27124 net.cpp:150] Setting up conv1
I0115 20:44:43.123379 27124 net.cpp:157] Top shape: 10 96 55 55 (2904000)
I0115 20:44:43.123389 27124 net.cpp:165] Memory required for data: 17799480
I0115 20:44:43.123415 27124 layer_factory.hpp:77] Creating layer relu1
I0115 20:44:43.123431 27124 net.cpp:100] Creating Layer relu1
I0115 20:44:43.123441 27124 net.cpp:434] relu1 <- conv1
I0115 20:44:43.123455 27124 net.cpp:395] relu1 -> conv1 (in-place)
I0115 20:44:43.123469 27124 net.cpp:150] Setting up relu1
I0115 20:44:43.123482 27124 net.cpp:157] Top shape: 10 96 55 55 (2904000)
I0115 20:44:43.123491 27124 net.cpp:165] Memory required for data: 29415480
I0115 20:44:43.123500 27124 layer_factory.hpp:77] Creating layer norm1
I0115 20:44:43.123514 27124 net.cpp:100] Creating Layer norm1
I0115 20:44:43.123523 27124 net.cpp:434] norm1 <- conv1
I0115 20:44:43.123536 27124 net.cpp:408] norm1 -> norm1
I0115 20:44:43.123558 27124 net.cpp:150] Setting up norm1
I0115 20:44:43.123571 27124 net.cpp:157] Top shape: 10 96 55 55 (2904000)
I0115 20:44:43.123580 27124 net.cpp:165] Memory required for data: 41031480
I0115 20:44:43.123590 27124 layer_factory.hpp:77] Creating layer pool1
I0115 20:44:43.123605 27124 net.cpp:100] Creating Layer pool1
I0115 20:44:43.123615 27124 net.cpp:434] pool1 <- norm1
I0115 20:44:43.123627 27124 net.cpp:408] pool1 -> pool1
I0115 20:44:43.123661 27124 net.cpp:150] Setting up pool1
I0115 20:44:43.123675 27124 net.cpp:157] Top shape: 10 96 27 27 (699840)
I0115 20:44:43.123683 27124 net.cpp:165] Memory required for data: 43830840
I0115 20:44:43.123694 27124 layer_factory.hpp:77] Creating layer conv2
I0115 20:44:43.123708 27124 net.cpp:100] Creating Layer conv2
I0115 20:44:43.123718 27124 net.cpp:434] conv2 <- pool1
I0115 20:44:43.123731 27124 net.cpp:408] conv2 -> conv2
I0115 20:44:43.124255 27124 net.cpp:150] Setting up conv2
I0115 20:44:43.124284 27124 net.cpp:157] Top shape: 10 256 27 27 (1866240)
I0115 20:44:43.124294 27124 net.cpp:165] Memory required for data: 51295800
I0115 20:44:43.124312 27124 layer_factory.hpp:77] Creating layer relu2
I0115 20:44:43.124328 27124 net.cpp:100] Creating Layer relu2
I0115 20:44:43.124338 27124 net.cpp:434] relu2 <- conv2
I0115 20:44:43.124351 27124 net.cpp:395] relu2 -> conv2 (in-place)
I0115 20:44:43.124366 27124 net.cpp:150] Setting up relu2
I0115 20:44:43.124379 27124 net.cpp:157] Top shape: 10 256 27 27 (1866240)
I0115 20:44:43.124387 27124 net.cpp:165] Memory required for data: 58760760
I0115 20:44:43.124397 27124 layer_factory.hpp:77] Creating layer norm2
I0115 20:44:43.124410 27124 net.cpp:100] Creating Layer norm2
I0115 20:44:43.124419 27124 net.cpp:434] norm2 <- conv2
I0115 20:44:43.124433 27124 net.cpp:408] norm2 -> norm2
I0115 20:44:43.124449 27124 net.cpp:150] Setting up norm2
I0115 20:44:43.124462 27124 net.cpp:157] Top shape: 10 256 27 27 (1866240)
I0115 20:44:43.124471 27124 net.cpp:165] Memory required for data: 66225720
I0115 20:44:43.124481 27124 layer_factory.hpp:77] Creating layer pool2
I0115 20:44:43.124496 27124 net.cpp:100] Creating Layer pool2
I0115 20:44:43.124505 27124 net.cpp:434] pool2 <- norm2
I0115 20:44:43.124518 27124 net.cpp:408] pool2 -> pool2
I0115 20:44:43.124536 27124 net.cpp:150] Setting up pool2
I0115 20:44:43.124548 27124 net.cpp:157] Top shape: 10 256 13 13 (432640)
I0115 20:44:43.124557 27124 net.cpp:165] Memory required for data: 67956280
I0115 20:44:43.124567 27124 layer_factory.hpp:77] Creating layer conv3
I0115 20:44:43.124581 27124 net.cpp:100] Creating Layer conv3
I0115 20:44:43.124590 27124 net.cpp:434] conv3 <- pool2
I0115 20:44:43.124604 27124 net.cpp:408] conv3 -> conv3
I0115 20:44:43.129000 27124 net.cpp:150] Setting up conv3
I0115 20:44:43.129065 27124 net.cpp:157] Top shape: 10 384 13 13 (648960)
I0115 20:44:43.129119 27124 net.cpp:165] Memory required for data: 70552120
I0115 20:44:43.129154 27124 layer_factory.hpp:77] Creating layer relu3
I0115 20:44:43.129179 27124 net.cpp:100] Creating Layer relu3
I0115 20:44:43.129194 27124 net.cpp:434] relu3 <- conv3
I0115 20:44:43.129212 27124 net.cpp:395] relu3 -> conv3 (in-place)
I0115 20:44:43.129235 27124 net.cpp:150] Setting up relu3
I0115 20:44:43.129250 27124 net.cpp:157] Top shape: 10 384 13 13 (648960)
I0115 20:44:43.129259 27124 net.cpp:165] Memory required for data: 73147960
I0115 20:44:43.129268 27124 layer_factory.hpp:77] Creating layer conv4
I0115 20:44:43.129307 27124 net.cpp:100] Creating Layer conv4
I0115 20:44:43.129322 27124 net.cpp:434] conv4 <- conv3
I0115 20:44:43.129341 27124 net.cpp:408] conv4 -> conv4
I0115 20:44:43.130843 27124 net.cpp:150] Setting up conv4
I0115 20:44:43.130921 27124 net.cpp:157] Top shape: 10 384 13 13 (648960)
I0115 20:44:43.130937 27124 net.cpp:165] Memory required for data: 75743800
I0115 20:44:43.130964 27124 layer_factory.hpp:77] Creating layer relu4
I0115 20:44:43.130991 27124 net.cpp:100] Creating Layer relu4
I0115 20:44:43.131011 27124 net.cpp:434] relu4 <- conv4
I0115 20:44:43.131031 27124 net.cpp:395] relu4 -> conv4 (in-place)
I0115 20:44:43.131058 27124 net.cpp:150] Setting up relu4
I0115 20:44:43.131075 27124 net.cpp:157] Top shape: 10 384 13 13 (648960)
I0115 20:44:43.131086 27124 net.cpp:165] Memory required for data: 78339640
I0115 20:44:43.131098 27124 layer_factory.hpp:77] Creating layer conv5
I0115 20:44:43.131126 27124 net.cpp:100] Creating Layer conv5
I0115 20:44:43.131139 27124 net.cpp:434] conv5 <- conv4
I0115 20:44:43.131160 27124 net.cpp:408] conv5 -> conv5
I0115 20:44:43.132181 27124 net.cpp:150] Setting up conv5
I0115 20:44:43.132241 27124 net.cpp:157] Top shape: 10 256 13 13 (432640)
I0115 20:44:43.132254 27124 net.cpp:165] Memory required for data: 80070200
I0115 20:44:43.132285 27124 layer_factory.hpp:77] Creating layer relu5
I0115 20:44:43.132315 27124 net.cpp:100] Creating Layer relu5
I0115 20:44:43.132331 27124 net.cpp:434] relu5 <- conv5
I0115 20:44:43.132351 27124 net.cpp:395] relu5 -> conv5 (in-place)
I0115 20:44:43.132375 27124 net.cpp:150] Setting up relu5
I0115 20:44:43.132393 27124 net.cpp:157] Top shape: 10 256 13 13 (432640)
I0115 20:44:43.132405 27124 net.cpp:165] Memory required for data: 81800760
I0115 20:44:43.132417 27124 layer_factory.hpp:77] Creating layer pool5
I0115 20:44:43.132436 27124 net.cpp:100] Creating Layer pool5
I0115 20:44:43.132447 27124 net.cpp:434] pool5 <- conv5
I0115 20:44:43.132463 27124 net.cpp:408] pool5 -> pool5
I0115 20:44:43.132488 27124 net.cpp:150] Setting up pool5
I0115 20:44:43.132504 27124 net.cpp:157] Top shape: 10 256 6 6 (92160)
I0115 20:44:43.132514 27124 net.cpp:165] Memory required for data: 82169400
I0115 20:44:43.132524 27124 layer_factory.hpp:77] Creating layer fc6
I0115 20:44:43.132549 27124 net.cpp:100] Creating Layer fc6
I0115 20:44:43.132558 27124 net.cpp:434] fc6 <- pool5
I0115 20:44:43.132572 27124 net.cpp:408] fc6 -> fc6
I0115 20:44:43.339913 27124 net.cpp:150] Setting up fc6
I0115 20:44:43.339978 27124 net.cpp:157] Top shape: 10 4096 (40960)
I0115 20:44:43.339984 27124 net.cpp:165] Memory required for data: 82333240
I0115 20:44:43.340001 27124 layer_factory.hpp:77] Creating layer relu6
I0115 20:44:43.340020 27124 net.cpp:100] Creating Layer relu6
I0115 20:44:43.340034 27124 net.cpp:434] relu6 <- fc6
I0115 20:44:43.340070 27124 net.cpp:395] relu6 -> fc6 (in-place)
I0115 20:44:43.340088 27124 net.cpp:150] Setting up relu6
I0115 20:44:43.340097 27124 net.cpp:157] Top shape: 10 4096 (40960)
I0115 20:44:43.340108 27124 net.cpp:165] Memory required for data: 82497080
I0115 20:44:43.340119 27124 layer_factory.hpp:77] Creating layer drop6
I0115 20:44:43.340131 27124 net.cpp:100] Creating Layer drop6
I0115 20:44:43.340138 27124 net.cpp:434] drop6 <- fc6
I0115 20:44:43.340147 27124 net.cpp:395] drop6 -> fc6 (in-place)
I0115 20:44:43.340169 27124 net.cpp:150] Setting up drop6
I0115 20:44:43.340179 27124 net.cpp:157] Top shape: 10 4096 (40960)
I0115 20:44:43.340227 27124 net.cpp:165] Memory required for data: 82660920
I0115 20:44:43.340236 27124 layer_factory.hpp:77] Creating layer fc7
I0115 20:44:43.340250 27124 net.cpp:100] Creating Layer fc7
I0115 20:44:43.340257 27124 net.cpp:434] fc7 <- fc6
I0115 20:44:43.340271 27124 net.cpp:408] fc7 -> fc7
I0115 20:44:43.403342 27124 net.cpp:150] Setting up fc7
I0115 20:44:43.403403 27124 net.cpp:157] Top shape: 10 4096 (40960)
I0115 20:44:43.403410 27124 net.cpp:165] Memory required for data: 82824760
I0115 20:44:43.403427 27124 layer_factory.hpp:77] Creating layer relu7
I0115 20:44:43.403448 27124 net.cpp:100] Creating Layer relu7
I0115 20:44:43.403457 27124 net.cpp:434] relu7 <- fc7
I0115 20:44:43.403470 27124 net.cpp:395] relu7 -> fc7 (in-place)
I0115 20:44:43.403486 27124 net.cpp:150] Setting up relu7
I0115 20:44:43.403496 27124 net.cpp:157] Top shape: 10 4096 (40960)
I0115 20:44:43.403501 27124 net.cpp:165] Memory required for data: 82988600
I0115 20:44:43.403507 27124 layer_factory.hpp:77] Creating layer drop7
I0115 20:44:43.403523 27124 net.cpp:100] Creating Layer drop7
I0115 20:44:43.403532 27124 net.cpp:434] drop7 <- fc7
I0115 20:44:43.403540 27124 net.cpp:395] drop7 -> fc7 (in-place)
I0115 20:44:43.403553 27124 net.cpp:150] Setting up drop7
I0115 20:44:43.403563 27124 net.cpp:157] Top shape: 10 4096 (40960)
I0115 20:44:43.403568 27124 net.cpp:165] Memory required for data: 83152440
I0115 20:44:43.403575 27124 layer_factory.hpp:77] Creating layer fc8
I0115 20:44:43.403587 27124 net.cpp:100] Creating Layer fc8
I0115 20:44:43.403594 27124 net.cpp:434] fc8 <- fc7
I0115 20:44:43.403604 27124 net.cpp:408] fc8 -> fc8
I0115 20:44:43.417445 27124 net.cpp:150] Setting up fc8
I0115 20:44:43.417523 27124 net.cpp:157] Top shape: 10 1000 (10000)
I0115 20:44:43.417536 27124 net.cpp:165] Memory required for data: 83192440
I0115 20:44:43.417572 27124 layer_factory.hpp:77] Creating layer prob
I0115 20:44:43.417609 27124 net.cpp:100] Creating Layer prob
I0115 20:44:43.417628 27124 net.cpp:434] prob <- fc8
I0115 20:44:43.417649 27124 net.cpp:408] prob -> prob
I0115 20:44:43.417690 27124 net.cpp:150] Setting up prob
I0115 20:44:43.417706 27124 net.cpp:157] Top shape: 10 1000 (10000)
I0115 20:44:43.417717 27124 net.cpp:165] Memory required for data: 83232440
I0115 20:44:43.417731 27124 net.cpp:228] prob does not need backward computation.
I0115 20:44:43.417762 27124 net.cpp:228] fc8 does not need backward computation.
I0115 20:44:43.417773 27124 net.cpp:228] drop7 does not need backward computation.
I0115 20:44:43.417786 27124 net.cpp:228] relu7 does not need backward computation.
…
