ubuntu@tegra-ubuntu:~/caffe$  tools/caffe time --model=models/bvlc_alexnet/deploy.prototxt --gpu=0
I0109 23:01:35.829604  3173 caffe.cpp:343] Use GPU with device ID 0
I0109 23:01:36.729810  3173 net.cpp:58] Initializing net from parameters: 
name: "AlexNet"
state {
  phase: TRAIN
  level: 0
  stage: ""
}
layer {
  name: "data"
  type: "Input"
  top: "data"
  input_param {
    shape {
      dim: 10
      dim: 3
      dim: 227
      dim: 227
    }
  }
}
layer {
  name: "conv1"
  type: "Convolution"
  bottom: "data"
  top: "conv1"
  param {
    lr_mult: 1
    decay_mult: 1
  }
  param {
    lr_mult: 2
    decay_mult: 0
  }
  convolution_param {
    num_output: 96
    kernel_size: 11
    stride: 4
  }
}
layer {
  name: "relu1"
  type: "ReLU"
  bottom: "conv1"
  top: "conv1"
}
layer {
  name: "norm1"
  type: "LRN"
  bottom: "conv1"
  top: "norm1"
  lrn_param {
    local_size: 5
    alpha: 0.0001
    beta: 0.75
  }
}
layer {
  name: "pool1"
  type: "Pooling"
  bottom: "norm1"
  top: "pool1"
  pooling_param {
    pool: MAX
    kernel_size: 3
    stride: 2
  }
}
layer {
  name: "conv2"
  type: "Convolution"
  bottom: "pool1"
  top: "conv2"
  param {
    lr_mult: 1
    decay_mult: 1
  }
  param {
    lr_mult: 2
    decay_mult: 0
  }
  convolution_param {
    num_output: 256
    pad: 2
    kernel_size: 5
    group: 2
  }
}
layer {
  name: "relu2"
  type: "ReLU"
  bottom: "conv2"
  top: "conv2"
}
layer {
  name: "norm2"
  type: "LRN"
  bottom: "conv2"
  top: "norm2"
  lrn_param {
    local_size: 5
    alpha: 0.0001
    beta: 0.75
  }
}
layer {
  name: "pool2"
  type: "Pooling"
  bottom: "norm2"
  top: "pool2"
  pooling_param {
    pool: MAX
    kernel_size: 3
    stride: 2
  }
}
layer {
  name: "conv3"
  type: "Convolution"
  bottom: "pool2"
  top: "conv3"
  param {
    lr_mult: 1
    decay_mult: 1
  }
  param {
    lr_mult: 2
    decay_mult: 0
  }
  convolution_param {
    num_output: 384
    pad: 1
    kernel_size: 3
  }
}
layer {
  name: "relu3"
  type: "ReLU"
  bottom: "conv3"
  top: "conv3"
}
layer {
  name: "conv4"
  type: "Convolution"
  bottom: "conv3"
  top: "conv4"
  param {
    lr_mult: 1
    decay_mult: 1
  }
  param {
    lr_mult: 2
    decay_mult: 0
  }
  convolution_param {
    num_output: 384
    pad: 1
    kernel_size: 3
    group: 2
  }
}
layer {
  name: "relu4"
  type: "ReLU"
  bottom: "conv4"
  top: "conv4"
}
layer {
  name: "conv5"
  type: "Convolution"
  bottom: "conv4"
  top: "conv5"
  param {
    lr_mult: 1
    decay_mult: 1
  }
  param {
    lr_mult: 2
    decay_mult: 0
  }
  convolution_param {
    num_output: 256
    pad: 1
    kernel_size: 3
    group: 2
  }
}
layer {
  name: "relu5"
  type: "ReLU"
  bottom: "conv5"
  top: "conv5"
}
layer {
  name: "pool5"
  type: "Pooling"
  bottom: "conv5"
  top: "pool5"
  pooling_param {
    pool: MAX
    kernel_size: 3
    stride: 2
  }
}
layer {
  name: "fc6"
  type: "InnerProduct"
  bottom: "pool5"
  top: "fc6"
  param {
    lr_mult: 1
    decay_mult: 1
  }
  param {
    lr_mult: 2
    decay_mult: 0
  }
  inner_product_param {
    num_output: 4096
  }
}
layer {
  name: "relu6"
  type: "ReLU"
  bottom: "fc6"
  top: "fc6"
}
layer {
  name: "drop6"
  type: "Dropout"
  bottom: "fc6"
  top: "fc6"
  dropout_param {
    dropout_ratio: 0.5
  }
}
layer {
  name: "fc7"
  type: "InnerProduct"
  bottom: "fc6"
  top: "fc7"
  param {
    lr_mult: 1
    decay_mult: 1
  }
  param {
    lr_mult: 2
    decay_mult: 0
  }
  inner_product_param {
    num_output: 4096
  }
}
layer {
  name: "relu7"
  type: "ReLU"
  bottom: "fc7"
  top: "fc7"
}
layer {
  name: "drop7"
  type: "Dropout"
  bottom: "fc7"
  top: "fc7"
  dropout_param {
    dropout_ratio: 0.5
  }
}
layer {
  name: "fc8"
  type: "InnerProduct"
  bottom: "fc7"
  top: "fc8"
  param {
    lr_mult: 1
    decay_mult: 1
  }
  param {
    lr_mult: 2
    decay_mult: 0
  }
  inner_product_param {
    num_output: 1000
  }
}
layer {
  name: "prob"
  type: "Softmax"
  bottom: "fc8"
  top: "prob"
}
I0109 23:01:36.734560  3173 layer_factory.hpp:77] Creating layer data
I0109 23:01:36.734635  3173 net.cpp:100] Creating Layer data
I0109 23:01:36.734684  3173 net.cpp:408] data -> data
I0109 23:01:36.802115  3173 net.cpp:150] Setting up data
I0109 23:01:36.802201  3173 net.cpp:157] Top shape: 10 3 227 227 (1545870)
I0109 23:01:36.802366  3173 net.cpp:165] Memory required for data: 6183480
I0109 23:01:36.802420  3173 layer_factory.hpp:77] Creating layer conv1
I0109 23:01:36.802498  3173 net.cpp:100] Creating Layer conv1
I0109 23:01:36.802544  3173 net.cpp:434] conv1 <- data
I0109 23:01:36.802597  3173 net.cpp:408] conv1 -> conv1
I0109 23:01:38.169625  3173 net.cpp:150] Setting up conv1
I0109 23:01:38.169701  3173 net.cpp:157] Top shape: 10 96 55 55 (2904000)
I0109 23:01:38.169754  3173 net.cpp:165] Memory required for data: 17799480
I0109 23:01:38.169836  3173 layer_factory.hpp:77] Creating layer relu1
I0109 23:01:38.169888  3173 net.cpp:100] Creating Layer relu1
I0109 23:01:38.169929  3173 net.cpp:434] relu1 <- conv1
I0109 23:01:38.169970  3173 net.cpp:395] relu1 -> conv1 (in-place)
I0109 23:01:38.171757  3173 net.cpp:150] Setting up relu1
I0109 23:01:38.171809  3173 net.cpp:157] Top shape: 10 96 55 55 (2904000)
I0109 23:01:38.171850  3173 net.cpp:165] Memory required for data: 29415480
I0109 23:01:38.171880  3173 layer_factory.hpp:77] Creating layer norm1
I0109 23:01:38.171957  3173 net.cpp:100] Creating Layer norm1
I0109 23:01:38.172013  3173 net.cpp:434] norm1 <- conv1
I0109 23:01:38.172071  3173 net.cpp:408] norm1 -> norm1
I0109 23:01:38.173620  3173 net.cpp:150] Setting up norm1
I0109 23:01:38.173669  3173 net.cpp:157] Top shape: 10 96 55 55 (2904000)
I0109 23:01:38.173710  3173 net.cpp:165] Memory required for data: 41031480
I0109 23:01:38.173745  3173 layer_factory.hpp:77] Creating layer pool1
I0109 23:01:38.173846  3173 net.cpp:100] Creating Layer pool1
I0109 23:01:38.173923  3173 net.cpp:434] pool1 <- norm1
I0109 23:01:38.173959  3173 net.cpp:408] pool1 -> pool1
I0109 23:01:38.174124  3173 net.cpp:150] Setting up pool1
I0109 23:01:38.174156  3173 net.cpp:157] Top shape: 10 96 27 27 (699840)
I0109 23:01:38.174195  3173 net.cpp:165] Memory required for data: 43830840
I0109 23:01:38.174223  3173 layer_factory.hpp:77] Creating layer conv2
I0109 23:01:38.174273  3173 net.cpp:100] Creating Layer conv2
I0109 23:01:38.174306  3173 net.cpp:434] conv2 <- pool1
I0109 23:01:38.174355  3173 net.cpp:408] conv2 -> conv2
I0109 23:01:38.187559  3173 net.cpp:150] Setting up conv2
I0109 23:01:38.187638  3173 net.cpp:157] Top shape: 10 256 27 27 (1866240)
I0109 23:01:38.187681  3173 net.cpp:165] Memory required for data: 51295800
I0109 23:01:38.187747  3173 layer_factory.hpp:77] Creating layer relu2
I0109 23:01:38.187794  3173 net.cpp:100] Creating Layer relu2
I0109 23:01:38.187829  3173 net.cpp:434] relu2 <- conv2
I0109 23:01:38.187871  3173 net.cpp:395] relu2 -> conv2 (in-place)
I0109 23:01:38.190106  3173 net.cpp:150] Setting up relu2
I0109 23:01:38.190162  3173 net.cpp:157] Top shape: 10 256 27 27 (1866240)
I0109 23:01:38.190198  3173 net.cpp:165] Memory required for data: 58760760
I0109 23:01:38.190230  3173 layer_factory.hpp:77] Creating layer norm2
I0109 23:01:38.190307  3173 net.cpp:100] Creating Layer norm2
I0109 23:01:38.190361  3173 net.cpp:434] norm2 <- conv2
I0109 23:01:38.190428  3173 net.cpp:408] norm2 -> norm2
I0109 23:01:38.192066  3173 net.cpp:150] Setting up norm2
I0109 23:01:38.192116  3173 net.cpp:157] Top shape: 10 256 27 27 (1866240)
I0109 23:01:38.192183  3173 net.cpp:165] Memory required for data: 66225720
I0109 23:01:38.192234  3173 layer_factory.hpp:77] Creating layer pool2
I0109 23:01:38.192308  3173 net.cpp:100] Creating Layer pool2
I0109 23:01:38.192344  3173 net.cpp:434] pool2 <- norm2
I0109 23:01:38.192380  3173 net.cpp:408] pool2 -> pool2
I0109 23:01:38.192554  3173 net.cpp:150] Setting up pool2
I0109 23:01:38.192595  3173 net.cpp:157] Top shape: 10 256 13 13 (432640)
I0109 23:01:38.192628  3173 net.cpp:165] Memory required for data: 67956280
I0109 23:01:38.192661  3173 layer_factory.hpp:77] Creating layer conv3
I0109 23:01:38.192708  3173 net.cpp:100] Creating Layer conv3
I0109 23:01:38.192741  3173 net.cpp:434] conv3 <- pool2
I0109 23:01:38.192785  3173 net.cpp:408] conv3 -> conv3
I0109 23:01:38.209735  3173 net.cpp:150] Setting up conv3
I0109 23:01:38.209825  3173 net.cpp:157] Top shape: 10 384 13 13 (648960)
I0109 23:01:38.209925  3173 net.cpp:165] Memory required for data: 70552120
I0109 23:01:38.209981  3173 layer_factory.hpp:77] Creating layer relu3
I0109 23:01:38.210032  3173 net.cpp:100] Creating Layer relu3
I0109 23:01:38.210064  3173 net.cpp:434] relu3 <- conv3
I0109 23:01:38.210100  3173 net.cpp:395] relu3 -> conv3 (in-place)
I0109 23:01:38.212263  3173 net.cpp:150] Setting up relu3
I0109 23:01:38.212326  3173 net.cpp:157] Top shape: 10 384 13 13 (648960)
I0109 23:01:38.212369  3173 net.cpp:165] Memory required for data: 73147960
I0109 23:01:38.212404  3173 layer_factory.hpp:77] Creating layer conv4
I0109 23:01:38.212457  3173 net.cpp:100] Creating Layer conv4
I0109 23:01:38.212493  3173 net.cpp:434] conv4 <- conv3
I0109 23:01:38.212538  3173 net.cpp:408] conv4 -> conv4
I0109 23:01:38.230640  3173 net.cpp:150] Setting up conv4
I0109 23:01:38.230732  3173 net.cpp:157] Top shape: 10 384 13 13 (648960)
I0109 23:01:38.230772  3173 net.cpp:165] Memory required for data: 75743800
I0109 23:01:38.230820  3173 layer_factory.hpp:77] Creating layer relu4
I0109 23:01:38.230866  3173 net.cpp:100] Creating Layer relu4
I0109 23:01:38.230903  3173 net.cpp:434] relu4 <- conv4
I0109 23:01:38.230939  3173 net.cpp:395] relu4 -> conv4 (in-place)
I0109 23:01:38.232913  3173 net.cpp:150] Setting up relu4
I0109 23:01:38.232950  3173 net.cpp:157] Top shape: 10 384 13 13 (648960)
I0109 23:01:38.232988  3173 net.cpp:165] Memory required for data: 78339640
I0109 23:01:38.233026  3173 layer_factory.hpp:77] Creating layer conv5
I0109 23:01:38.233078  3173 net.cpp:100] Creating Layer conv5
I0109 23:01:38.233139  3173 net.cpp:434] conv5 <- conv4
I0109 23:01:38.233203  3173 net.cpp:408] conv5 -> conv5
I0109 23:01:38.252408  3173 net.cpp:150] Setting up conv5
I0109 23:01:38.252496  3173 net.cpp:157] Top shape: 10 256 13 13 (432640)
I0109 23:01:38.252535  3173 net.cpp:165] Memory required for data: 80070200
I0109 23:01:38.252596  3173 layer_factory.hpp:77] Creating layer relu5
I0109 23:01:38.252638  3173 net.cpp:100] Creating Layer relu5
I0109 23:01:38.252672  3173 net.cpp:434] relu5 <- conv5
I0109 23:01:38.252707  3173 net.cpp:395] relu5 -> conv5 (in-place)
I0109 23:01:38.255194  3173 net.cpp:150] Setting up relu5
I0109 23:01:38.255254  3173 net.cpp:157] Top shape: 10 256 13 13 (432640)
I0109 23:01:38.255306  3173 net.cpp:165] Memory required for data: 81800760
I0109 23:01:38.255343  3173 layer_factory.hpp:77] Creating layer pool5
I0109 23:01:38.255383  3173 net.cpp:100] Creating Layer pool5
I0109 23:01:38.255416  3173 net.cpp:434] pool5 <- conv5
I0109 23:01:38.255457  3173 net.cpp:408] pool5 -> pool5
I0109 23:01:38.255709  3173 net.cpp:150] Setting up pool5
I0109 23:01:38.255753  3173 net.cpp:157] Top shape: 10 256 6 6 (92160)
I0109 23:01:38.255789  3173 net.cpp:165] Memory required for data: 82169400
I0109 23:01:38.255821  3173 layer_factory.hpp:77] Creating layer fc6
I0109 23:01:38.255882  3173 net.cpp:100] Creating Layer fc6
I0109 23:01:38.255918  3173 net.cpp:434] fc6 <- pool5
I0109 23:01:38.255959  3173 net.cpp:408] fc6 -> fc6
I0109 23:01:38.378232  3173 net.cpp:150] Setting up fc6
I0109 23:01:38.378309  3173 net.cpp:157] Top shape: 10 4096 (40960)
I0109 23:01:38.378351  3173 net.cpp:165] Memory required for data: 82333240
I0109 23:01:38.378397  3173 layer_factory.hpp:77] Creating layer relu6
I0109 23:01:38.378449  3173 net.cpp:100] Creating Layer relu6
I0109 23:01:38.378485  3173 net.cpp:434] relu6 <- fc6
I0109 23:01:38.378522  3173 net.cpp:395] relu6 -> fc6 (in-place)
I0109 23:01:38.383489  3173 net.cpp:150] Setting up relu6
I0109 23:01:38.383558  3173 net.cpp:157] Top shape: 10 4096 (40960)
I0109 23:01:38.383628  3173 net.cpp:165] Memory required for data: 82497080
I0109 23:01:38.383697  3173 layer_factory.hpp:77] Creating layer drop6
I0109 23:01:38.383785  3173 net.cpp:100] Creating Layer drop6
I0109 23:01:38.383821  3173 net.cpp:434] drop6 <- fc6
I0109 23:01:38.383869  3173 net.cpp:395] drop6 -> fc6 (in-place)
I0109 23:01:38.384059  3173 net.cpp:150] Setting up drop6
I0109 23:01:38.384099  3173 net.cpp:157] Top shape: 10 4096 (40960)
I0109 23:01:38.384194  3173 net.cpp:165] Memory required for data: 82660920
I0109 23:01:38.384229  3173 layer_factory.hpp:77] Creating layer fc7
I0109 23:01:38.384270  3173 net.cpp:100] Creating Layer fc7
I0109 23:01:38.384305  3173 net.cpp:434] fc7 <- fc6
I0109 23:01:38.384346  3173 net.cpp:408] fc7 -> fc7
I0109 23:01:38.439625  3173 net.cpp:150] Setting up fc7
I0109 23:01:38.439699  3173 net.cpp:157] Top shape: 10 4096 (40960)
I0109 23:01:38.439743  3173 net.cpp:165] Memory required for data: 82824760
I0109 23:01:38.439790  3173 layer_factory.hpp:77] Creating layer relu7
I0109 23:01:38.439834  3173 net.cpp:100] Creating Layer relu7
I0109 23:01:38.439867  3173 net.cpp:434] relu7 <- fc7
I0109 23:01:38.439921  3173 net.cpp:395] relu7 -> fc7 (in-place)
I0109 23:01:38.443074  3173 net.cpp:150] Setting up relu7
I0109 23:01:38.443135  3173 net.cpp:157] Top shape: 10 4096 (40960)
I0109 23:01:38.443181  3173 net.cpp:165] Memory required for data: 82988600
I0109 23:01:38.443228  3173 layer_factory.hpp:77] Creating layer drop7
I0109 23:01:38.443323  3173 net.cpp:100] Creating Layer drop7
I0109 23:01:38.443398  3173 net.cpp:434] drop7 <- fc7
I0109 23:01:38.443444  3173 net.cpp:395] drop7 -> fc7 (in-place)
I0109 23:01:38.443614  3173 net.cpp:150] Setting up drop7
I0109 23:01:38.443657  3173 net.cpp:157] Top shape: 10 4096 (40960)
I0109 23:01:38.443691  3173 net.cpp:165] Memory required for data: 83152440
I0109 23:01:38.443722  3173 layer_factory.hpp:77] Creating layer fc8
I0109 23:01:38.443773  3173 net.cpp:100] Creating Layer fc8
I0109 23:01:38.443805  3173 net.cpp:434] fc8 <- fc7
I0109 23:01:38.443841  3173 net.cpp:408] fc8 -> fc8
I0109 23:01:38.458346  3173 net.cpp:150] Setting up fc8
I0109 23:01:38.458421  3173 net.cpp:157] Top shape: 10 1000 (10000)
I0109 23:01:38.458473  3173 net.cpp:165] Memory required for data: 83192440
I0109 23:01:38.458526  3173 layer_factory.hpp:77] Creating layer prob
I0109 23:01:38.458573  3173 net.cpp:100] Creating Layer prob
I0109 23:01:38.458611  3173 net.cpp:434] prob <- fc8
I0109 23:01:38.458647  3173 net.cpp:408] prob -> prob
I0109 23:01:38.461581  3173 net.cpp:150] Setting up prob
I0109 23:01:38.461643  3173 net.cpp:157] Top shape: 10 1000 (10000)
I0109 23:01:38.461686  3173 net.cpp:165] Memory required for data: 83232440
I0109 23:01:38.461746  3173 net.cpp:228] prob does not need backward computation.
I0109 23:01:38.461796  3173 net.cpp:228] fc8 does not need backward computation.
I0109 23:01:38.461828  3173 net.cpp:228] drop7 does not need backward computation.
I0109 23:01:38.461858  3173 net.cpp:228] relu7 does not need backward computation.
…
